…
[2024-02-20 09:49:53,419] [INFO] [logging.py:77:log_dist] [Rank -1] DeepSpeed info: version=0.8.2, git-hash=unknown, git-branch=unknown
2024-02-20,09:49:53 | INFO | Added key: store_based_barrier_key:2 to store for rank: 2
2024-02-20,09:49:53 | INFO | number of total params: 253026049
2024-02-20,09:49:53 | INFO | number of params with requires_grad: 253026049
2024-02-20,09:49:53 | INFO | number of visual params: 88630528
2024-02-20,09:49:53 | INFO | number of text params: 63428096
2024-02-20,09:49:53 | INFO | Model:
2024-02-20,09:49:53 | INFO | CoCa(
  (visual): EVAVisionTransformer(
    (patch_embed): PatchEmbed(
      (proj): Conv2d(3, 768, kernel_size=(16, 16), stride=(16, 16))
    )
    (pos_drop): Dropout(p=0.0, inplace=False)
    (rope): VisionRotaryEmbeddingFast()
    (blocks): ModuleList(
      (0-11): 12 x Block(
        (norm1): FusedLayerNorm(torch.Size([768]), eps=1e-06, elementwise_affine=True)
        (attn): Attention(
          (q_proj): Linear(in_features=768, out_features=768, bias=False)
          (k_proj): Linear(in_features=768, out_features=768, bias=False)
          (v_proj): Linear(in_features=768, out_features=768, bias=False)
          (attn_drop): Dropout(p=0.0, inplace=False)
          (inner_attn_ln): FusedLayerNorm(torch.Size([768]), eps=1e-06, elementwise_affine=True)
          (proj): Linear(in_features=768, out_features=768, bias=True)
          (proj_drop): Dropout(p=0.0, inplace=False)
          (rope): VisionRotaryEmbeddingFast()
        )
        (drop_path): Identity()
        (norm2): FusedLayerNorm(torch.Size([768]), eps=1e-06, elementwise_affine=True)
        (mlp): SwiGLU(
          (w1): Linear(in_features=768, out_features=2048, bias=True)
          (w2): Linear(in_features=768, out_features=2048, bias=True)
          (act): SiLU()
          (ffn_ln): FusedLayerNorm(torch.Size([2048]), eps=1e-06, elementwise_affine=True)
          (w3): Linear(in_features=2048, out_features=768, bias=True)
          (drop): Dropout(p=0.0, inplace=False)
        )
      )
    )
    (patch_dropout): Identity()
    (attn_pool): AttentionalPooler(
      (attn): MultiheadAttention(
        (out_proj): NonDynamicallyQuantizableLinear(in_features=512, out_features=512, bias=True)
      )
      (ln_q): LayerNorm((512,), eps=1e-05, elementwise_affine=True)
      (ln_k): LayerNorm((768,), eps=1e-05, elementwise_affine=True)
    )
    (attn_pool_contrastive): AttentionalPooler(
      (attn): MultiheadAttention(
        (out_proj): NonDynamicallyQuantizableLinear(in_features=512, out_features=512, bias=True)
      )
      (ln_q): LayerNorm((512,), eps=1e-05, elementwise_affine=True)
      (ln_k): LayerNorm((512,), eps=1e-05, elementwise_affine=True)
    )
    (ln_post): FusedLayerNorm(torch.Size([512]), eps=1e-06, elementwise_affine=True)
  )
  (text): TextTransformer(
    (token_embedding): Embedding(49408, 512)
    (transformer): Transformer(
      (resblocks): ModuleList(
        (0-11): 12 x ResidualAttentionBlock(
          (ln_1): FusedLayerNorm(torch.Size([512]), eps=1e-05, elementwise_affine=True)
          (attn): Attention(
            (attn_drop): Dropout(p=0.0, inplace=False)
            (out_proj): Linear(in_features=512, out_features=512, bias=True)
            (out_drop): Dropout(p=0.0, inplace=False)
          )
          (ls_1): Identity()
          (ln_2): FusedLayerNorm(torch.Size([512]), eps=1e-05, elementwise_affine=True)
          (mlp): Sequential(
            (c_fc): Linear(in_features=512, out_features=2048, bias=True)
            (gelu): GELU(approximate='none')
            (c_proj): Linear(in_features=2048, out_features=512, bias=True)
          )
          (ls_2): Identity()
        )
      )
    )
    (ln_final): FusedLayerNorm(torch.Size([512]), eps=1e-05, elementwise_affine=True)
  )
  (text_decoder): MultimodalTransformer(
    (resblocks): ModuleList(
      (0-11): 12 x ResidualAttentionBlock(
        (ln_1): LayerNorm((512,), eps=1e-05, elementwise_affine=True)
        (attn): Attention(
          (attn_drop): Dropout(p=0.0, inplace=False)
          (out_proj): Linear(in_features=512, out_features=512, bias=True)
          (out_drop): Dropout(p=0.0, inplace=False)
        )
        (ls_1): Identity()
        (ln_2): LayerNorm((512,), eps=1e-05, elementwise_affine=True)
        (mlp): Sequential(
          (c_fc): Linear(in_features=512, out_features=2048, bias=True)
          (gelu): GELU(approximate='none')
          (c_proj): Linear(in_features=2048, out_features=512, bias=True)
        )
        (ls_2): Identity()
      )
    )
    (cross_attn): ModuleList(
      (0-11): 12 x ResidualAttentionBlock(
        (ln_1): LayerNorm((512,), eps=1e-05, elementwise_affine=True)
        (attn): Attention(
          (attn_drop): Dropout(p=0.0, inplace=False)
          (out_proj): Linear(in_features=512, out_features=512, bias=True)
          (out_drop): Dropout(p=0.0, inplace=False)
        )
        (ls_1): Identity()
        (ln_1_kv): LayerNorm((512,), eps=1e-05, elementwise_affine=True)
        (ln_2): LayerNorm((512,), eps=1e-05, elementwise_affine=True)
        (mlp): Sequential(
          (c_fc): Linear(in_features=512, out_features=2048, bias=True)
          (gelu): GELU(approximate='none')
          (c_proj): Linear(in_features=2048, out_features=512, bias=True)
        )
        (ls_2): Identity()
      )
    )
    (ln_final): LayerNorm((512,), eps=1e-05, elementwise_affine=True)
  )
)
2024-02-20,09:49:53 | INFO | Params:
2024-02-20,09:49:53 | INFO |   accum_freq: 1
2024-02-20,09:49:53 | INFO |   batch_size: 512
2024-02-20,09:49:53 | INFO |   beta1: 0.9
2024-02-20,09:49:53 | INFO |   beta2: 0.999
2024-02-20,09:49:53 | INFO |   cache_dir: None
2024-02-20,09:49:53 | INFO |   checkpoint_path: ./logs/2024_02_20-09_49_41-model_CoCa-B-16-lr_0.0005-b_512-j_8-p_amp/checkpoints
…
