…
[2024-02-21 15:00:45,427] [INFO] [logging.py:77:log_dist] [Rank -1] DeepSpeed info: version=0.8.2, git-hash=unknown, git-branch=unknown
2024-02-21,15:00:45 | INFO | Added key: store_based_barrier_key:2 to store for rank: 1
2024-02-21,15:00:45 | INFO | number of total params: 149691137
2024-02-21,15:00:45 | INFO | number of params with requires_grad: 149691137
2024-02-21,15:00:45 | INFO | number of visual params: 86263040
2024-02-21,15:00:45 | INFO | number of text params: 63428096
2024-02-21,15:00:45 | INFO | Model:
2024-02-21,15:00:45 | INFO | CustomCLIP(
  (visual): EVAVisionTransformer(
    (patch_embed): PatchEmbed(
      (proj): Conv2d(3, 768, kernel_size=(16, 16), stride=(16, 16))
    )
    (pos_drop): Dropout(p=0.0, inplace=False)
    (rope): VisionRotaryEmbeddingFast()
    (blocks): ModuleList(
      (0-11): 12 x Block(
        (norm1): FusedLayerNorm(torch.Size([768]), eps=1e-06, elementwise_affine=True)
        (attn): Attention(
          (q_proj): Linear(in_features=768, out_features=768, bias=False)
          (k_proj): Linear(in_features=768, out_features=768, bias=False)
          (v_proj): Linear(in_features=768, out_features=768, bias=False)
          (attn_drop): Dropout(p=0.0, inplace=False)
          (inner_attn_ln): FusedLayerNorm(torch.Size([768]), eps=1e-06, elementwise_affine=True)
          (proj): Linear(in_features=768, out_features=768, bias=True)
          (proj_drop): Dropout(p=0.0, inplace=False)
          (rope): VisionRotaryEmbeddingFast()
        )
        (drop_path): Identity()
        (norm2): FusedLayerNorm(torch.Size([768]), eps=1e-06, elementwise_affine=True)
        (mlp): SwiGLU(
          (w1): Linear(in_features=768, out_features=2048, bias=True)
          (w2): Linear(in_features=768, out_features=2048, bias=True)
          (act): SiLU()
          (ffn_ln): FusedLayerNorm(torch.Size([2048]), eps=1e-06, elementwise_affine=True)
          (w3): Linear(in_features=2048, out_features=768, bias=True)
          (drop): Dropout(p=0.0, inplace=False)
        )
      )
    )
    (norm): FusedLayerNorm(torch.Size([768]), eps=1e-06, elementwise_affine=True)
    (head): Linear(in_features=768, out_features=512, bias=True)
    (patch_dropout): Identity()
  )
  (text): TextTransformer(
    (token_embedding): Embedding(49408, 512)
    (transformer): Transformer(
      (resblocks): ModuleList(
        (0-11): 12 x ResidualAttentionBlock(
          (ln_1): FusedLayerNorm(torch.Size([512]), eps=1e-05, elementwise_affine=True)
          (attn): Attention(
            (attn_drop): Dropout(p=0.0, inplace=False)
            (out_proj): Linear(in_features=512, out_features=512, bias=True)
            (out_drop): Dropout(p=0.0, inplace=False)
          )
          (ls_1): Identity()
          (ln_2): FusedLayerNorm(torch.Size([512]), eps=1e-05, elementwise_affine=True)
          (mlp): Sequential(
            (c_fc): Linear(in_features=512, out_features=2048, bias=True)
            (gelu): GELU(approximate='none')
            (c_proj): Linear(in_features=2048, out_features=512, bias=True)
          )
          (ls_2): Identity()
        )
      )
    )
    (ln_final): FusedLayerNorm(torch.Size([512]), eps=1e-05, elementwise_affine=True)
  )
)
2024-02-21,15:00:45 | INFO | Params:
2024-02-21,15:00:45 | INFO |   batch_size: 2048
2024-02-21,15:00:45 | INFO |   beta1: 0.9
2024-02-21,15:00:45 | INFO |   beta2: 0.999
2024-02-21,15:00:45 | INFO |   cache_dir: None
…
